2023-07-15 21:13:15 [/home/work_nfs7/zqwang/summer_intern_dir/team03/summer_intern/trainer/trainer.py:66 - INFO ] Trainer: model summary:
E3Net(
  (spk_model): ModelWrapper(
    (feature_extractor): FeatureWrapper(
      (feature_module): Fbank(
        (stft): STFT()
        (filterbank): Filterbank()
      )
      (feature_normalization): SentenceFeatureNormalization()
    )
    (embedding_model): EcapaTdnnSpeakerVerification(
      (conv_block): TdnnConvLayer(
        (activation): ReLU()
        (kernel): Conv1d(80, 512, kernel_size=(5,), stride=(1,), padding=(2,))
        (norm): BatchNorm1d(512, eps=1e-05, momentum=0.1, affine=True, track_running_stats=True)
      )
      (se_res2block_list): ModuleList(
        (0): SERes2Block(
          (block1): TdnnConvLayer(
            (activation): ReLU()
            (kernel): Conv1d(512, 512, kernel_size=(1,), stride=(1,))
            (norm): BatchNorm1d(512, eps=1e-05, momentum=0.1, affine=True, track_running_stats=True)
          )
          (dilated_conv): Res2DilatedConv1d(
            (conv_list): ModuleList(
              (0): Identity()
              (1): TdnnConvLayer(
                (activation): ReLU()
                (kernel): Conv1d(64, 64, kernel_size=(3,), stride=(1,), padding=(2,), dilation=(2,))
                (norm): BatchNorm1d(64, eps=1e-05, momentum=0.1, affine=True, track_running_stats=True)
              )
              (2): TdnnConvLayer(
                (activation): ReLU()
                (kernel): Conv1d(64, 64, kernel_size=(3,), stride=(1,), padding=(2,), dilation=(2,))
                (norm): BatchNorm1d(64, eps=1e-05, momentum=0.1, affine=True, track_running_stats=True)
              )
              (3): TdnnConvLayer(
                (activation): ReLU()
                (kernel): Conv1d(64, 64, kernel_size=(3,), stride=(1,), padding=(2,), dilation=(2,))
                (norm): BatchNorm1d(64, eps=1e-05, momentum=0.1, affine=True, track_running_stats=True)
              )
              (4): TdnnConvLayer(
                (activation): ReLU()
                (kernel): Conv1d(64, 64, kernel_size=(3,), stride=(1,), padding=(2,), dilation=(2,))
                (norm): BatchNorm1d(64, eps=1e-05, momentum=0.1, affine=True, track_running_stats=True)
              )
              (5): TdnnConvLayer(
                (activation): ReLU()
                (kernel): Conv1d(64, 64, kernel_size=(3,), stride=(1,), padding=(2,), dilation=(2,))
                (norm): BatchNorm1d(64, eps=1e-05, momentum=0.1, affine=True, track_running_stats=True)
              )
              (6): TdnnConvLayer(
                (activation): ReLU()
                (kernel): Conv1d(64, 64, kernel_size=(3,), stride=(1,), padding=(2,), dilation=(2,))
                (norm): BatchNorm1d(64, eps=1e-05, momentum=0.1, affine=True, track_running_stats=True)
              )
              (7): TdnnConvLayer(
                (activation): ReLU()
                (kernel): Conv1d(64, 64, kernel_size=(3,), stride=(1,), padding=(2,), dilation=(2,))
                (norm): BatchNorm1d(64, eps=1e-05, momentum=0.1, affine=True, track_running_stats=True)
              )
            )
          )
          (block2): TdnnConvLayer(
            (activation): ReLU()
            (kernel): Conv1d(512, 512, kernel_size=(1,), stride=(1,))
            (norm): BatchNorm1d(512, eps=1e-05, momentum=0.1, affine=True, track_running_stats=True)
          )
          (se_block): SEBlock1d(
            (avg_pool): AdaptiveAvgPool1d(output_size=1)
            (fc): Sequential(
              (0): Conv1d(512, 128, kernel_size=(1,), stride=(1,))
              (1): ReLU(inplace=True)
              (2): Conv1d(128, 512, kernel_size=(1,), stride=(1,))
              (3): Sigmoid()
            )
          )
        )
        (1): SERes2Block(
          (block1): TdnnConvLayer(
            (activation): ReLU()
            (kernel): Conv1d(512, 512, kernel_size=(1,), stride=(1,))
            (norm): BatchNorm1d(512, eps=1e-05, momentum=0.1, affine=True, track_running_stats=True)
          )
          (dilated_conv): Res2DilatedConv1d(
            (conv_list): ModuleList(
              (0): Identity()
              (1): TdnnConvLayer(
                (activation): ReLU()
                (kernel): Conv1d(64, 64, kernel_size=(3,), stride=(1,), padding=(3,), dilation=(3,))
                (norm): BatchNorm1d(64, eps=1e-05, momentum=0.1, affine=True, track_running_stats=True)
              )
              (2): TdnnConvLayer(
                (activation): ReLU()
                (kernel): Conv1d(64, 64, kernel_size=(3,), stride=(1,), padding=(3,), dilation=(3,))
                (norm): BatchNorm1d(64, eps=1e-05, momentum=0.1, affine=True, track_running_stats=True)
              )
              (3): TdnnConvLayer(
                (activation): ReLU()
                (kernel): Conv1d(64, 64, kernel_size=(3,), stride=(1,), padding=(3,), dilation=(3,))
                (norm): BatchNorm1d(64, eps=1e-05, momentum=0.1, affine=True, track_running_stats=True)
              )
              (4): TdnnConvLayer(
                (activation): ReLU()
                (kernel): Conv1d(64, 64, kernel_size=(3,), stride=(1,), padding=(3,), dilation=(3,))
                (norm): BatchNorm1d(64, eps=1e-05, momentum=0.1, affine=True, track_running_stats=True)
              )
              (5): TdnnConvLayer(
                (activation): ReLU()
                (kernel): Conv1d(64, 64, kernel_size=(3,), stride=(1,), padding=(3,), dilation=(3,))
                (norm): BatchNorm1d(64, eps=1e-05, momentum=0.1, affine=True, track_running_stats=True)
              )
              (6): TdnnConvLayer(
                (activation): ReLU()
                (kernel): Conv1d(64, 64, kernel_size=(3,), stride=(1,), padding=(3,), dilation=(3,))
                (norm): BatchNorm1d(64, eps=1e-05, momentum=0.1, affine=True, track_running_stats=True)
              )
              (7): TdnnConvLayer(
                (activation): ReLU()
                (kernel): Conv1d(64, 64, kernel_size=(3,), stride=(1,), padding=(3,), dilation=(3,))
                (norm): BatchNorm1d(64, eps=1e-05, momentum=0.1, affine=True, track_running_stats=True)
              )
            )
          )
          (block2): TdnnConvLayer(
            (activation): ReLU()
            (kernel): Conv1d(512, 512, kernel_size=(1,), stride=(1,))
            (norm): BatchNorm1d(512, eps=1e-05, momentum=0.1, affine=True, track_running_stats=True)
          )
          (se_block): SEBlock1d(
            (avg_pool): AdaptiveAvgPool1d(output_size=1)
            (fc): Sequential(
              (0): Conv1d(512, 128, kernel_size=(1,), stride=(1,))
              (1): ReLU(inplace=True)
              (2): Conv1d(128, 512, kernel_size=(1,), stride=(1,))
              (3): Sigmoid()
            )
          )
        )
        (2): SERes2Block(
          (block1): TdnnConvLayer(
            (activation): ReLU()
            (kernel): Conv1d(512, 512, kernel_size=(1,), stride=(1,))
            (norm): BatchNorm1d(512, eps=1e-05, momentum=0.1, affine=True, track_running_stats=True)
          )
          (dilated_conv): Res2DilatedConv1d(
            (conv_list): ModuleList(
              (0): Identity()
              (1): TdnnConvLayer(
                (activation): ReLU()
                (kernel): Conv1d(64, 64, kernel_size=(3,), stride=(1,), padding=(4,), dilation=(4,))
                (norm): BatchNorm1d(64, eps=1e-05, momentum=0.1, affine=True, track_running_stats=True)
              )
              (2): TdnnConvLayer(
                (activation): ReLU()
                (kernel): Conv1d(64, 64, kernel_size=(3,), stride=(1,), padding=(4,), dilation=(4,))
                (norm): BatchNorm1d(64, eps=1e-05, momentum=0.1, affine=True, track_running_stats=True)
              )
              (3): TdnnConvLayer(
                (activation): ReLU()
                (kernel): Conv1d(64, 64, kernel_size=(3,), stride=(1,), padding=(4,), dilation=(4,))
                (norm): BatchNorm1d(64, eps=1e-05, momentum=0.1, affine=True, track_running_stats=True)
              )
              (4): TdnnConvLayer(
                (activation): ReLU()
                (kernel): Conv1d(64, 64, kernel_size=(3,), stride=(1,), padding=(4,), dilation=(4,))
                (norm): BatchNorm1d(64, eps=1e-05, momentum=0.1, affine=True, track_running_stats=True)
              )
              (5): TdnnConvLayer(
                (activation): ReLU()
                (kernel): Conv1d(64, 64, kernel_size=(3,), stride=(1,), padding=(4,), dilation=(4,))
                (norm): BatchNorm1d(64, eps=1e-05, momentum=0.1, affine=True, track_running_stats=True)
              )
              (6): TdnnConvLayer(
                (activation): ReLU()
                (kernel): Conv1d(64, 64, kernel_size=(3,), stride=(1,), padding=(4,), dilation=(4,))
                (norm): BatchNorm1d(64, eps=1e-05, momentum=0.1, affine=True, track_running_stats=True)
              )
              (7): TdnnConvLayer(
                (activation): ReLU()
                (kernel): Conv1d(64, 64, kernel_size=(3,), stride=(1,), padding=(4,), dilation=(4,))
                (norm): BatchNorm1d(64, eps=1e-05, momentum=0.1, affine=True, track_running_stats=True)
              )
            )
          )
          (block2): TdnnConvLayer(
            (activation): ReLU()
            (kernel): Conv1d(512, 512, kernel_size=(1,), stride=(1,))
            (norm): BatchNorm1d(512, eps=1e-05, momentum=0.1, affine=True, track_running_stats=True)
          )
          (se_block): SEBlock1d(
            (avg_pool): AdaptiveAvgPool1d(output_size=1)
            (fc): Sequential(
              (0): Conv1d(512, 128, kernel_size=(1,), stride=(1,))
              (1): ReLU(inplace=True)
              (2): Conv1d(128, 512, kernel_size=(1,), stride=(1,))
              (3): Sigmoid()
            )
          )
        )
      )
      (mfa): TdnnConvLayer(
        (activation): ReLU()
        (kernel): Conv1d(1536, 1536, kernel_size=(1,), stride=(1,))
        (norm): BatchNorm1d(1536, eps=1e-05, momentum=0.1, affine=True, track_running_stats=True)
      )
      (attentive_statistic_pooling): AttentiveStatisticsPooling(
        (tdnn): TdnnConvLayer(
          (activation): ReLU()
          (kernel): Conv1d(4608, 128, kernel_size=(1,), stride=(1,))
          (norm): BatchNorm1d(128, eps=1e-05, momentum=0.1, affine=True, track_running_stats=True)
        )
        (tanh): Tanh()
        (conv): Conv1d(128, 1536, kernel_size=(1,), stride=(1,))
      )
      (asp_bn): BatchNorm1d(3072, eps=1e-05, momentum=0.1, affine=True, track_running_stats=True)
      (fc): Conv1d(3072, 256, kernel_size=(1,), stride=(1,))
    )
  )
  (encoder): Conv1d(1, 2048, kernel_size=(320,), stride=(160,))
  (encoder_norm): Sequential(
    (0): PReLU(num_parameters=1)
    (1): LayerNorm((2048,), eps=1e-05, elementwise_affine=True)
  )
  (fullyconnection): Sequential(
    (0): Linear(in_features=2304, out_features=1024, bias=True)
    (1): PReLU(num_parameters=1)
    (2): LayerNorm((1024,), eps=1e-05, elementwise_affine=True)
  )
  (lstmblock_1): LSTMBlock(
    (fullyconnection_block): Sequential(
      (0): Linear(in_features=1024, out_features=1024, bias=True)
      (1): PReLU(num_parameters=1)
      (2): Linear(in_features=1024, out_features=256, bias=True)
      (3): PReLU(num_parameters=1)
      (4): LayerNorm((256,), eps=1e-05, elementwise_affine=True)
    )
    (lstm): LSTM(256, 256, batch_first=True)
    (layernorm_1): LayerNorm((256,), eps=1e-05, elementwise_affine=True)
    (layernorm_2): LayerNorm((256,), eps=1e-05, elementwise_affine=True)
  )
  (lstmblock_2): LSTMBlock(
    (fullyconnection_block): Sequential(
      (0): Linear(in_features=256, out_features=1024, bias=True)
      (1): PReLU(num_parameters=1)
      (2): Linear(in_features=1024, out_features=256, bias=True)
      (3): PReLU(num_parameters=1)
      (4): LayerNorm((256,), eps=1e-05, elementwise_affine=True)
    )
    (lstm): LSTM(256, 256, batch_first=True)
    (layernorm_1): LayerNorm((256,), eps=1e-05, elementwise_affine=True)
    (layernorm_2): LayerNorm((256,), eps=1e-05, elementwise_affine=True)
  )
  (lstmblock_3): LSTMBlock(
    (fullyconnection_block): Sequential(
      (0): Linear(in_features=256, out_features=1024, bias=True)
      (1): PReLU(num_parameters=1)
      (2): Linear(in_features=1024, out_features=256, bias=True)
      (3): PReLU(num_parameters=1)
      (4): LayerNorm((256,), eps=1e-05, elementwise_affine=True)
    )
    (lstm): LSTM(256, 256, batch_first=True)
    (layernorm_1): LayerNorm((256,), eps=1e-05, elementwise_affine=True)
    (layernorm_2): LayerNorm((256,), eps=1e-05, elementwise_affine=True)
  )
  (lstmblock_4): LSTMBlock(
    (fullyconnection_block): Sequential(
      (0): Linear(in_features=256, out_features=1024, bias=True)
      (1): PReLU(num_parameters=1)
      (2): Linear(in_features=1024, out_features=256, bias=True)
      (3): PReLU(num_parameters=1)
      (4): LayerNorm((256,), eps=1e-05, elementwise_affine=True)
    )
    (lstm): LSTM(256, 256, batch_first=True)
    (layernorm_1): LayerNorm((256,), eps=1e-05, elementwise_affine=True)
    (layernorm_2): LayerNorm((256,), eps=1e-05, elementwise_affine=True)
  )
  (mask): Sequential(
    (0): Linear(in_features=256, out_features=2048, bias=True)
    (1): Sigmoid()
  )
  (decoder): ConvTranspose1d(2048, 1, kernel_size=(320,), stride=(160,))
  (fc): Linear(in_features=256, out_features=1955, bias=True)
)
2023-07-15 21:13:15 [/home/work_nfs7/zqwang/summer_intern_dir/team03/summer_intern/trainer/trainer.py:66 - INFO ] Trainer: #param: 16.10M
2023-07-15 21:13:15 [/home/work_nfs7/zqwang/summer_intern_dir/team03/summer_intern/trainer/trainer.py:66 - INFO ] Trainer: resume spk model from checkpoint /home/work_nfs4_ssd/hzhao/aslp-spknet-fork/exp/ecapa_augment_vox2/results/ecapa_augments_vox2/final.pth.tar
…
2023-07-27 10:06:36 [/home/work_nfs7/zqwang/summer_intern_dir/team03/summer_intern/trainer/trainer.py:66 - INFO ] Trainer: Epoch:4 processed 2.00e+02 / 5.72e+02 batches (loss = +1.37)...
2023-07-27 10:11:31 [/home/work_nfs7/zqwang/summer_intern_dir/team03/summer_intern/trainer/trainer.py:66 - INFO ] Trainer: model summary:
E3Net(
  (spk_model): ModelWrapper(
    (feature_extractor): FeatureWrapper(
      (feature_module): Fbank(
        (stft): STFT()
        (filterbank): Filterbank()
      )
      (feature_normalization): SentenceFeatureNormalization()
    )
    (embedding_model): EcapaTdnnSpeakerVerification(
      (conv_block): TdnnConvLayer(
        (activation): ReLU()
        (kernel): Conv1d(80, 512, kernel_size=(5,), stride=(1,), padding=(2,))
        (norm): BatchNorm1d(512, eps=1e-05, momentum=0.1, affine=True, track_running_stats=True)
      )
      (se_res2block_list): ModuleList(
        (0): SERes2Block(
          (block1): TdnnConvLayer(
            (activation): ReLU()
            (kernel): Conv1d(512, 512, kernel_size=(1,), stride=(1,))
            (norm): BatchNorm1d(512, eps=1e-05, momentum=0.1, affine=True, track_running_stats=True)
          )
          (dilated_conv): Res2DilatedConv1d(
            (conv_list): ModuleList(
              (0): Identity()
              (1): TdnnConvLayer(
                (activation): ReLU()
                (kernel): Conv1d(64, 64, kernel_size=(3,), stride=(1,), padding=(2,), dilation=(2,))
                (norm): BatchNorm1d(64, eps=1e-05, momentum=0.1, affine=True, track_running_stats=True)
              )
              (2): TdnnConvLayer(
                (activation): ReLU()
                (kernel): Conv1d(64, 64, kernel_size=(3,), stride=(1,), padding=(2,), dilation=(2,))
                (norm): BatchNorm1d(64, eps=1e-05, momentum=0.1, affine=True, track_running_stats=True)
              )
              (3): TdnnConvLayer(
                (activation): ReLU()
                (kernel): Conv1d(64, 64, kernel_size=(3,), stride=(1,), padding=(2,), dilation=(2,))
                (norm): BatchNorm1d(64, eps=1e-05, momentum=0.1, affine=True, track_running_stats=True)
              )
              (4): TdnnConvLayer(
                (activation): ReLU()
                (kernel): Conv1d(64, 64, kernel_size=(3,), stride=(1,), padding=(2,), dilation=(2,))
                (norm): BatchNorm1d(64, eps=1e-05, momentum=0.1, affine=True, track_running_stats=True)
              )
              (5): TdnnConvLayer(
                (activation): ReLU()
                (kernel): Conv1d(64, 64, kernel_size=(3,), stride=(1,), padding=(2,), dilation=(2,))
                (norm): BatchNorm1d(64, eps=1e-05, momentum=0.1, affine=True, track_running_stats=True)
              )
              (6): TdnnConvLayer(
                (activation): ReLU()
                (kernel): Conv1d(64, 64, kernel_size=(3,), stride=(1,), padding=(2,), dilation=(2,))
                (norm): BatchNorm1d(64, eps=1e-05, momentum=0.1, affine=True, track_running_stats=True)
              )
              (7): TdnnConvLayer(
                (activation): ReLU()
                (kernel): Conv1d(64, 64, kernel_size=(3,), stride=(1,), padding=(2,), dilation=(2,))
                (norm): BatchNorm1d(64, eps=1e-05, momentum=0.1, affine=True, track_running_stats=True)
              )
            )
          )
          (block2): TdnnConvLayer(
            (activation): ReLU()
            (kernel): Conv1d(512, 512, kernel_size=(1,), stride=(1,))
            (norm): BatchNorm1d(512, eps=1e-05, momentum=0.1, affine=True, track_running_stats=True)
          )
          (se_block): SEBlock1d(
            (avg_pool): AdaptiveAvgPool1d(output_size=1)
            (fc): Sequential(
              (0): Conv1d(512, 128, kernel_size=(1,), stride=(1,))
              (1): ReLU(inplace=True)
              (2): Conv1d(128, 512, kernel_size=(1,), stride=(1,))
              (3): Sigmoid()
            )
          )
        )
        (1): SERes2Block(
          (block1): TdnnConvLayer(
            (activation): ReLU()
            (kernel): Conv1d(512, 512, kernel_size=(1,), stride=(1,))
            (norm): BatchNorm1d(512, eps=1e-05, momentum=0.1, affine=True, track_running_stats=True)
          )
          (dilated_conv): Res2DilatedConv1d(
            (conv_list): ModuleList(
              (0): Identity()
              (1): TdnnConvLayer(
                (activation): ReLU()
                (kernel): Conv1d(64, 64, kernel_size=(3,), stride=(1,), padding=(3,), dilation=(3,))
                (norm): BatchNorm1d(64, eps=1e-05, momentum=0.1, affine=True, track_running_stats=True)
              )
              (2): TdnnConvLayer(
                (activation): ReLU()
                (kernel): Conv1d(64, 64, kernel_size=(3,), stride=(1,), padding=(3,), dilation=(3,))
                (norm): BatchNorm1d(64, eps=1e-05, momentum=0.1, affine=True, track_running_stats=True)
              )
              (3): TdnnConvLayer(
                (activation): ReLU()
                (kernel): Conv1d(64, 64, kernel_size=(3,), stride=(1,), padding=(3,), dilation=(3,))
                (norm): BatchNorm1d(64, eps=1e-05, momentum=0.1, affine=True, track_running_stats=True)
              )
              (4): TdnnConvLayer(
                (activation): ReLU()
                (kernel): Conv1d(64, 64, kernel_size=(3,), stride=(1,), padding=(3,), dilation=(3,))
                (norm): BatchNorm1d(64, eps=1e-05, momentum=0.1, affine=True, track_running_stats=True)
              )
              (5): TdnnConvLayer(
                (activation): ReLU()
                (kernel): Conv1d(64, 64, kernel_size=(3,), stride=(1,), padding=(3,), dilation=(3,))
                (norm): BatchNorm1d(64, eps=1e-05, momentum=0.1, affine=True, track_running_stats=True)
              )
              (6): TdnnConvLayer(
                (activation): ReLU()
                (kernel): Conv1d(64, 64, kernel_size=(3,), stride=(1,), padding=(3,), dilation=(3,))
                (norm): BatchNorm1d(64, eps=1e-05, momentum=0.1, affine=True, track_running_stats=True)
              )
              (7): TdnnConvLayer(
                (activation): ReLU()
                (kernel): Conv1d(64, 64, kernel_size=(3,), stride=(1,), padding=(3,), dilation=(3,))
                (norm): BatchNorm1d(64, eps=1e-05, momentum=0.1, affine=True, track_running_stats=True)
              )
            )
          )
          (block2): TdnnConvLayer(
            (activation): ReLU()
            (kernel): Conv1d(512, 512, kernel_size=(1,), stride=(1,))
            (norm): BatchNorm1d(512, eps=1e-05, momentum=0.1, affine=True, track_running_stats=True)
          )
          (se_block): SEBlock1d(
            (avg_pool): AdaptiveAvgPool1d(output_size=1)
            (fc): Sequential(
              (0): Conv1d(512, 128, kernel_size=(1,), stride=(1,))
              (1): ReLU(inplace=True)
              (2): Conv1d(128, 512, kernel_size=(1,), stride=(1,))
              (3): Sigmoid()
            )
          )
        )
        (2): SERes2Block(
          (block1): TdnnConvLayer(
            (activation): ReLU()
            (kernel): Conv1d(512, 512, kernel_size=(1,), stride=(1,))
            (norm): BatchNorm1d(512, eps=1e-05, momentum=0.1, affine=True, track_running_stats=True)
          )
          (dilated_conv): Res2DilatedConv1d(
            (conv_list): ModuleList(
              (0): Identity()
              (1): TdnnConvLayer(
                (activation): ReLU()
                (kernel): Conv1d(64, 64, kernel_size=(3,), stride=(1,), padding=(4,), dilation=(4,))
                (norm): BatchNorm1d(64, eps=1e-05, momentum=0.1, affine=True, track_running_stats=True)
              )
              (2): TdnnConvLayer(
                (activation): ReLU()
                (kernel): Conv1d(64, 64, kernel_size=(3,), stride=(1,), padding=(4,), dilation=(4,))
                (norm): BatchNorm1d(64, eps=1e-05, momentum=0.1, affine=True, track_running_stats=True)
              )
              (3): TdnnConvLayer(
                (activation): ReLU()
                (kernel): Conv1d(64, 64, kernel_size=(3,), stride=(1,), padding=(4,), dilation=(4,))
                (norm): BatchNorm1d(64, eps=1e-05, momentum=0.1, affine=True, track_running_stats=True)
              )
              (4): TdnnConvLayer(
                (activation): ReLU()
                (kernel): Conv1d(64, 64, kernel_size=(3,), stride=(1,), padding=(4,), dilation=(4,))
                (norm): BatchNorm1d(64, eps=1e-05, momentum=0.1, affine=True, track_running_stats=True)
              )
              (5): TdnnConvLayer(
                (activation): ReLU()
                (kernel): Conv1d(64, 64, kernel_size=(3,), stride=(1,), padding=(4,), dilation=(4,))
                (norm): BatchNorm1d(64, eps=1e-05, momentum=0.1, affine=True, track_running_stats=True)
              )
              (6): TdnnConvLayer(
                (activation): ReLU()
                (kernel): Conv1d(64, 64, kernel_size=(3,), stride=(1,), padding=(4,), dilation=(4,))
                (norm): BatchNorm1d(64, eps=1e-05, momentum=0.1, affine=True, track_running_stats=True)
              )
              (7): TdnnConvLayer(
                (activation): ReLU()
                (kernel): Conv1d(64, 64, kernel_size=(3,), stride=(1,), padding=(4,), dilation=(4,))
                (norm): BatchNorm1d(64, eps=1e-05, momentum=0.1, affine=True, track_running_stats=True)
              )
            )
          )
          (block2): TdnnConvLayer(
            (activation): ReLU()
            (kernel): Conv1d(512, 512, kernel_size=(1,), stride=(1,))
            (norm): BatchNorm1d(512, eps=1e-05, momentum=0.1, affine=True, track_running_stats=True)
          )
          (se_block): SEBlock1d(
            (avg_pool): AdaptiveAvgPool1d(output_size=1)
            (fc): Sequential(
              (0): Conv1d(512, 128, kernel_size=(1,), stride=(1,))
              (1): ReLU(inplace=True)
              (2): Conv1d(128, 512, kernel_size=(1,), stride=(1,))
              (3): Sigmoid()
            )
          )
        )
      )
      (mfa): TdnnConvLayer(
        (activation): ReLU()
        (kernel): Conv1d(1536, 1536, kernel_size=(1,), stride=(1,))
        (norm): BatchNorm1d(1536, eps=1e-05, momentum=0.1, affine=True, track_running_stats=True)
      )
      (attentive_statistic_pooling): AttentiveStatisticsPooling(
        (tdnn): TdnnConvLayer(
          (activation): ReLU()
          (kernel): Conv1d(4608, 128, kernel_size=(1,), stride=(1,))
          (norm): BatchNorm1d(128, eps=1e-05, momentum=0.1, affine=True, track_running_stats=True)
        )
        (tanh): Tanh()
        (conv): Conv1d(128, 1536, kernel_size=(1,), stride=(1,))
      )
      (asp_bn): BatchNorm1d(3072, eps=1e-05, momentum=0.1, affine=True, track_running_stats=True)
      (fc): Conv1d(3072, 256, kernel_size=(1,), stride=(1,))
    )
  )
  (encoder): Conv1d(1, 3076, kernel_size=(320,), stride=(160,))
  (encoder_norm): Sequential(
    (0): PReLU(num_parameters=1)
    (1): LayerNorm((3076,), eps=1e-05, elementwise_affine=True)
  )
  (fullyconnection): Sequential(
    (0): Linear(in_features=3332, out_features=1024, bias=True)
    (1): PReLU(num_parameters=1)
    (2): LayerNorm((1024,), eps=1e-05, elementwise_affine=True)
  )
  (lstmblock_1): LSTMBlock(
    (fullyconnection_block): Sequential(
      (0): Linear(in_features=1024, out_features=1024, bias=True)
      (1): PReLU(num_parameters=1)
      (2): Linear(in_features=1024, out_features=256, bias=True)
      (3): PReLU(num_parameters=1)
      (4): LayerNorm((256,), eps=1e-05, elementwise_affine=True)
    )
    (lstm): LSTM(256, 256, batch_first=True)
    (layernorm_1): LayerNorm((256,), eps=1e-05, elementwise_affine=True)
    (layernorm_2): LayerNorm((256,), eps=1e-05, elementwise_affine=True)
  )
  (lstmblock_2): LSTMBlock(
    (fullyconnection_block): Sequential(
      (0): Linear(in_features=256, out_features=1024, bias=True)
      (1): PReLU(num_parameters=1)
      (2): Linear(in_features=1024, out_features=256, bias=True)
      (3): PReLU(num_parameters=1)
      (4): LayerNorm((256,), eps=1e-05, elementwise_affine=True)
    )
    (lstm): LSTM(256, 256, batch_first=True)
    (layernorm_1): LayerNorm((256,), eps=1e-05, elementwise_affine=True)
    (layernorm_2): LayerNorm((256,), eps=1e-05, elementwise_affine=True)
  )
  (lstmblock_3): LSTMBlock(
    (fullyconnection_block): Sequential(
      (0): Linear(in_features=256, out_features=1024, bias=True)
      (1): PReLU(num_parameters=1)
      (2): Linear(in_features=1024, out_features=256, bias=True)
      (3): PReLU(num_parameters=1)
      (4): LayerNorm((256,), eps=1e-05, elementwise_affine=True)
    )
    (lstm): LSTM(256, 256, batch_first=True)
    (layernorm_1): LayerNorm((256,), eps=1e-05, elementwise_affine=True)
    (layernorm_2): LayerNorm((256,), eps=1e-05, elementwise_affine=True)
  )
  (lstmblock_4): LSTMBlock(
    (fullyconnection_block): Sequential(
      (0): Linear(in_features=256, out_features=1024, bias=True)
      (1): PReLU(num_parameters=1)
      (2): Linear(in_features=1024, out_features=256, bias=True)
      (3): PReLU(num_parameters=1)
      (4): LayerNorm((256,), eps=1e-05, elementwise_affine=True)
    )
    (lstm): LSTM(256, 256, batch_first=True)
    (layernorm_1): LayerNorm((256,), eps=1e-05, elementwise_affine=True)
    (layernorm_2): LayerNorm((256,), eps=1e-05, elementwise_affine=True)
  )
  (mask): Sequential(
    (0): Linear(in_features=256, out_features=3076, bias=True)
    (1): Sigmoid()
  )
  (decoder): ConvTranspose1d(3076, 1, kernel_size=(320,), stride=(160,))
  (fc): Linear(in_features=256, out_features=1955, bias=True)
)
2023-07-27 10:11:31 [/home/work_nfs7/zqwang/summer_intern_dir/team03/summer_intern/trainer/trainer.py:66 - INFO ] Trainer: #param: 18.08M
2023-07-27 10:11:33 [/home/work_nfs7/zqwang/summer_intern_dir/team03/summer_intern/trainer/trainer.py:66 - INFO ] Trainer: resume from checkpoint /home/work_nfs7/zqwang/summer_intern_dir/team03/summer_intern/exp/exp_cos_2loss_TAPloss/last.pt.tar: epoch 4
…
